…
 num_layers      | 1            
 num_neg         | 2            
 num_workers     | 0            
 optimizer       | Adam         
 random_seed     | 2021         
 topk            | [10,20]      
=================================
INFO:root:cuda available: False
INFO:root:# cuda devices: 0
INFO:root:Reading data from "../data/", dataset = "RealRecord" 
INFO:root:Counting dataset statistics...
INFO:root:"# user": 14682, "# item": 8714, "# entry": 151254
INFO:root:Appending history info...
INFO:root:Save corpus to ../data/RealRecord\BaseReader.pkl
INFO:root:#params: 580096
INFO:root:SASRec(
  (i_embeddings): Embedding(8714, 64)
  (p_embeddings): Embedding(21, 64)
  (transformer_block): ModuleList(
    (0): TransformerLayer(
      (masked_attn_head): MultiHeadAttention(
        (q_linear): Linear(in_features=64, out_features=64, bias=True)
        (k_linear): Linear(in_features=64, out_features=64, bias=True)
        (v_linear): Linear(in_features=64, out_features=64, bias=True)
      )
      (layer_norm1): LayerNorm((64,), eps=1e-05, elementwise_affine=True)
      (dropout1): Dropout(p=0, inplace=False)
      (linear1): Linear(in_features=64, out_features=64, bias=True)
      (linear2): Linear(in_features=64, out_features=64, bias=True)
      (layer_norm2): LayerNorm((64,), eps=1e-05, elementwise_affine=True)
      (dropout2): Dropout(p=0, inplace=False)
    )
  )
)
INFO:root:Test Before Training: (HR@10:0.1050,HR@20:0.2059,NDCG@10:0.0465,NDCG@20:0.0717)
INFO:root:Optimizer: Adam
INFO:root:Epoch 1     loss=0.6125 [87.9 s]	 dev=(HR@10:0.4150,NDCG@10:0.2387) test=(HR@10:0.3828,NDCG@10:0.2209) [10.5 s] 
INFO:root:Save model to ../model/SASRec/SASRec__RealRecord__2021__epoch=10...
…
 num_layers      | 1            
 num_neg         | 2            
 num_workers     | 0            
 optimizer       | Adam         
 random_seed     | 2021         
 topk            | [10,20]      
=================================
INFO:root:cuda available: False
INFO:root:# cuda devices: 0
INFO:root:Reading data from "../data/", dataset = "RealRecord" 
INFO:root:Counting dataset statistics...
INFO:root:"# user": 14682, "# item": 8714, "# entry": 151254
INFO:root:Appending history info...
INFO:root:Save corpus to ../data/RealRecord\BaseReader.pkl
INFO:root:#params: 8749
INFO:root:SASRec(
  (i_embeddings): Embedding(8714, 1)
  (p_embeddings): Embedding(21, 1)
  (transformer_block): ModuleList(
    (0): TransformerLayer(
      (masked_attn_head): MultiHeadAttention(
        (q_linear): Linear(in_features=1, out_features=1, bias=True)
        (k_linear): Linear(in_features=1, out_features=1, bias=True)
        (v_linear): Linear(in_features=1, out_features=1, bias=True)
      )
      (layer_norm1): LayerNorm((1,), eps=1e-05, elementwise_affine=True)
      (dropout1): Dropout(p=0, inplace=False)
      (linear1): Linear(in_features=1, out_features=1, bias=True)
      (linear2): Linear(in_features=1, out_features=1, bias=True)
      (layer_norm2): LayerNorm((1,), eps=1e-05, elementwise_affine=True)
      (dropout2): Dropout(p=0, inplace=False)
    )
  )
)
INFO:root:Namespace(model_name='SASRec')
INFO:root:--------------------------------------------- BEGIN: 2021-04-15 22:56:42 ---------------------------------------------
INFO:root:
=================================
 Arguments       | Values        
=================================
 batch_size      | 1            
…
